Found 22940 images belonging to 10 classes.
Found 4910 images belonging to 10 classes.
Found 4930 images belonging to 10 classes.
Model: "sequential"
_________________________________________________________________
 Layer (type)                Output Shape              Param #   
=================================================================
 conv2d (Conv2D)             (None, 382, 382, 32)      896       
                                                                 
 max_pooling2d (MaxPooling2D  (None, 191, 191, 32)     0         
 )                                                               
                                                                 
 conv2d_1 (Conv2D)           (None, 189, 189, 64)      18496     
                                                                 
 max_pooling2d_1 (MaxPooling  (None, 94, 94, 64)       0         
 2D)                                                             
                                                                 
 conv2d_2 (Conv2D)           (None, 92, 92, 64)        36928     
                                                                 
 max_pooling2d_2 (MaxPooling  (None, 46, 46, 64)       0         
 2D)                                                             
                                                                 
 conv2d_3 (Conv2D)           (None, 44, 44, 64)        36928     
                                                                 
 max_pooling2d_3 (MaxPooling  (None, 22, 22, 64)       0         
 2D)                                                             
                                                                 
 conv2d_4 (Conv2D)           (None, 20, 20, 64)        36928     
                                                                 
 max_pooling2d_4 (MaxPooling  (None, 10, 10, 64)       0         
 2D)                                                             
                                                                 
 flatten (Flatten)           (None, 6400)              0         
                                                                 
 dense (Dense)               (None, 128)               819328    
                                                                 
 dense_1 (Dense)             (None, 10)                1290      
                                                                 
=================================================================
Total params: 950,794
Trainable params: 950,794
Non-trainable params: 0
_________________________________________________________________
None
2023-07-15 17:45:01.197025: W tensorflow/tsl/platform/profile_utils/cpu_utils.cc:128] Failed to get CPU frequency: 0 Hz
…
